{"architecture":{"module":"keras.src.models.functional","class_name":"Functional","config":{"name":"KU-DNN_photonID_balancingClasses_4kEGammaChunks_newPreprocessing_test_isoShape_1000epochs_large8","trainable":true,"layers":[{"module":"keras.layers","class_name":"InputLayer","config":{"batch_shape":[null,10],"dtype":"float32","sparse":false,"ragged":false,"name":"input_layer"},"registered_name":null,"name":"input_layer","inbound_nodes":[]},{"module":"keras.layers","class_name":"Dense","config":{"name":"dense_layer0","trainable":true,"dtype":{"module":"keras","class_name":"DTypePolicy","config":{"name":"float32"},"registered_name":null},"units":8,"activation":"relu","use_bias":true,"kernel_initializer":{"module":"keras.initializers","class_name":"GlorotUniform","config":{"seed":null},"registered_name":null},"bias_initializer":{"module":"keras.initializers","class_name":"Zeros","config":{},"registered_name":null},"kernel_regularizer":null,"bias_regularizer":null,"kernel_constraint":null,"bias_constraint":null},"registered_name":null,"build_config":{"input_shape":[null,10]},"name":"dense_layer0","inbound_nodes":[{"args":[{"class_name":"__keras_tensor__","config":{"shape":[null,10],"dtype":"float32","keras_history":["input_layer",0,0]}}],"kwargs":{}}]},{"module":"keras.layers","class_name":"Dense","config":{"name":"dense_layer1","trainable":true,"dtype":{"module":"keras","class_name":"DTypePolicy","config":{"name":"float32"},"registered_name":null},"units":8,"activation":"relu","use_bias":true,"kernel_initializer":{"module":"keras.initializers","class_name":"GlorotUniform","config":{"seed":null},"registered_name":null},"bias_initializer":{"module":"keras.initializers","class_name":"Zeros","config":{},"registered_name":null},"kernel_regularizer":null,"bias_regularizer":null,"kernel_constraint":null,"bias_constraint":null},"registered_name":null,"build_config":{"input_shape":[null,8]},"name":"dense_layer1","inbound_nodes":[{"args":[{"class_name":"__keras_tensor__","config":{"shape":[null,8],"dtype":"float32","keras_history":["dense_layer0",0,0]}}],"kwargs":{}}]},{"module":"keras.layers","class_name":"Dense","config":{"name":"dense_layer2","trainable":true,"dtype":{"module":"keras","class_name":"DTypePolicy","config":{"name":"float32"},"registered_name":null},"units":8,"activation":"relu","use_bias":true,"kernel_initializer":{"module":"keras.initializers","class_name":"GlorotUniform","config":{"seed":null},"registered_name":null},"bias_initializer":{"module":"keras.initializers","class_name":"Zeros","config":{},"registered_name":null},"kernel_regularizer":null,"bias_regularizer":null,"kernel_constraint":null,"bias_constraint":null},"registered_name":null,"build_config":{"input_shape":[null,8]},"name":"dense_layer2","inbound_nodes":[{"args":[{"class_name":"__keras_tensor__","config":{"shape":[null,8],"dtype":"float32","keras_history":["dense_layer1",0,0]}}],"kwargs":{}}]},{"module":"keras.layers","class_name":"Dense","config":{"name":"dense_layer3","trainable":true,"dtype":{"module":"keras","class_name":"DTypePolicy","config":{"name":"float32"},"registered_name":null},"units":8,"activation":"relu","use_bias":true,"kernel_initializer":{"module":"keras.initializers","class_name":"GlorotUniform","config":{"seed":null},"registered_name":null},"bias_initializer":{"module":"keras.initializers","class_name":"Zeros","config":{},"registered_name":null},"kernel_regularizer":null,"bias_regularizer":null,"kernel_constraint":null,"bias_constraint":null},"registered_name":null,"build_config":{"input_shape":[null,8]},"name":"dense_layer3","inbound_nodes":[{"args":[{"class_name":"__keras_tensor__","config":{"shape":[null,8],"dtype":"float32","keras_history":["dense_layer2",0,0]}}],"kwargs":{}}]},{"module":"keras.layers","class_name":"Dense","config":{"name":"dense_layer4","trainable":true,"dtype":{"module":"keras","class_name":"DTypePolicy","config":{"name":"float32"},"registered_name":null},"units":8,"activation":"relu","use_bias":true,"kernel_initializer":{"module":"keras.initializers","class_name":"GlorotUniform","config":{"seed":null},"registered_name":null},"bias_initializer":{"module":"keras.initializers","class_name":"Zeros","config":{},"registered_name":null},"kernel_regularizer":null,"bias_regularizer":null,"kernel_constraint":null,"bias_constraint":null},"registered_name":null,"build_config":{"input_shape":[null,8]},"name":"dense_layer4","inbound_nodes":[{"args":[{"class_name":"__keras_tensor__","config":{"shape":[null,8],"dtype":"float32","keras_history":["dense_layer3",0,0]}}],"kwargs":{}}]},{"module":"keras.layers","class_name":"Dense","config":{"name":"output","trainable":true,"dtype":{"module":"keras","class_name":"DTypePolicy","config":{"name":"float32"},"registered_name":null},"units":1,"activation":"sigmoid","use_bias":true,"kernel_initializer":{"module":"keras.initializers","class_name":"GlorotUniform","config":{"seed":null},"registered_name":null},"bias_initializer":{"module":"keras.initializers","class_name":"Zeros","config":{},"registered_name":null},"kernel_regularizer":null,"bias_regularizer":null,"kernel_constraint":null,"bias_constraint":null},"registered_name":null,"build_config":{"input_shape":[null,8]},"name":"output","inbound_nodes":[{"args":[{"class_name":"__keras_tensor__","config":{"shape":[null,8],"dtype":"float32","keras_history":["dense_layer4",0,0]}}],"kwargs":{}}]}],"input_layers":[["input_layer",0,0]],"output_layers":[["output",0,0]]},"registered_name":"Functional","build_config":{"input_shape":null},"compile_config":{"optimizer":{"module":"keras.optimizers","class_name":"SGD","config":{"name":"SGD","learning_rate":0.009999999776482582,"weight_decay":null,"clipnorm":null,"global_clipnorm":null,"clipvalue":null,"use_ema":false,"ema_momentum":0.99,"ema_overwrite_frequency":null,"loss_scale_factor":null,"gradient_accumulation_steps":null,"momentum":0.0,"nesterov":false},"registered_name":null},"loss":"mse","loss_weights":null,"metrics":null,"weighted_metrics":null,"run_eagerly":false,"steps_per_execution":1,"jit_compile":false}},"image_data_format":"channels_last","input_shapes":[[10]],"output_shapes":[[1]],"tests":[{"inputs":[{"shape":[10],"values":["cMDzPysnEj8zQHe/5iK3PjKHDb+KroG/WIG6v9PkRj8FZF+/eI29vg=="]}],"outputs":[{"shape":[1],"values":["AAAAAA=="]}]}],"trainable_params":{"dense_layer0":{"weights":["…"],"bias":["PoArvZ+lMT0epD8+r5GyPsl/vLoEua29TylMvpAqDb0="]},"dense_layer1":{"weights":["…"],"bias":["Q458PocgCkAUcWy+CQczQJOPSj9cB0U/UI5lPxxbrjw="]},"dense_layer2":{"weights":["…"],"bias":["bSkBQIBErD94GD6/KxIwPzt9Lr+BF0g/8tymvo4ehkA="]},"dense_layer3":{"weights":["…"],"bias":["XJzdvwpCQkFbytlAvL+tQC2QA0B25Z7AFDAPwFDbIL8="]},"dense_layer4":{"weights":["…"],"bias":["rk0swYLSj8CQxfDA/kgYwUww9D4+D6/A3Au4v9KahkA="]},"output":{"weights":["EPZsvhGdMz7L8CS+OM7UvfSfhr58KRA+1No1PsazZr0="],"bias":["Dc+TPw=="]}},"hash":"f6fd47befb5dbf2f622f649cd22b1ad9537042d37657d332dfc72006e4fbe000"}